…
Test record ids (first 20): ['135658', '143565', '132686', '153336', '136234', '161259', '144334', '155826', '132965', '145771', '135230', '142282', '132811', '138581', '145324', '156677', '138893', '149970', '138857', '142583']
Test record ids (last 20): ['143105', '137445', '146306', '144014', '138615', '142832', '139966', '153126', '152621', '160873', '146193', '139516', '146984', '143920', '145567', '137594', '162180', '144612', '136132', '143447']
data_max: tensor([… device='cuda:0')
data_min: tensor([ … device='cuda:0')
time_max: tensor(48., device='cuda:0')
model Hi_Patch(
  (gcs): ModuleList(
    (0): Intra_Inter_Patch_Graph_Layer
  )
  (te_scale): Linear(in_features=1, out_features=1, bias=True)
  (te_periodic): Linear(in_features=1, out_features=63, bias=True)
  (obs_enc): Linear(in_features=1, out_features=64, bias=True)
  (nodevec): Embedding(41, 64)
  (relu): ReLU()
  (decoder): Sequential(
    (0): Linear(in_features=128, out_features=64, bias=True)
    (1): ReLU(inplace=True)
    (2): Linear(in_features=64, out_features=64, bias=True)
    (3): ReLU(inplace=True)
    (4): Linear(in_features=64, out_features=1, bias=True)
  )
)
parameters: 140097
n_train_batches: 225
Exp has been early stopped!
PID, device: 1019589 cuda:0
Total records: 12000
Dataset n_samples: 12000 7200 2400 2400
Test record ids (first 20): ['135658', '143565', '132686', '153336', '136234', '161259', '144334', '155826', '132965', '145771', '135230', '142282', '132811', '138581', '145324', '156677', '138893', '149970', '138857', '142583']
Test record ids (last 20): ['143105', '137445', '146306', '144014', '138615', '142832', '139966', '153126', '152621', '160873', '146193', '139516', '146984', '143920', '145567', '137594', '162180', '144612', '136132', '143447']
data_max: tensor([… device='cuda:0')
data_min: tensor([ … device='cuda:0')
time_max: tensor(48., device='cuda:0')
model Hi_Patch(
  (gcs): ModuleList(
    (0): Intra_Inter_Patch_Graph_Layer
  )
  (te_scale): Linear(in_features=1, out_features=1, bias=True)
  (te_periodic): Linear(in_features=1, out_features=63, bias=True)
  (obs_enc): Linear(in_features=1, out_features=64, bias=True)
  (nodevec): Embedding(41, 64)
  (relu): ReLU()
  (decoder): Sequential(
    (0): Linear(in_features=128, out_features=64, bias=True)
    (1): ReLU(inplace=True)
    (2): Linear(in_features=64, out_features=64, bias=True)
    (3): ReLU(inplace=True)
    (4): Linear(in_features=64, out_features=1, bias=True)
  )
)
parameters: 140097
n_train_batches: 225
Exp has been early stopped!
PID, device: 1020264 cuda:0
Total records: 12000
Dataset n_samples: 12000 7200 2400 2400
Test record ids (first 20): ['135658', '143565', '132686', '153336', '136234', '161259', '144334', '155826', '132965', '145771', '135230', '142282', '132811', '138581', '145324', '156677', '138893', '149970', '138857', '142583']
Test record ids (last 20): ['143105', '137445', '146306', '144014', '138615', '142832', '139966', '153126', '152621', '160873', '146193', '139516', '146984', '143920', '145567', '137594', '162180', '144612', '136132', '143447']
data_max: tensor([… device='cuda:0')
data_min: tensor([ … device='cuda:0')
time_max: tensor(48., device='cuda:0')
model Hi_Patch(
  (gcs): ModuleList(
    (0): Intra_Inter_Patch_Graph_Layer
  )
  (te_scale): Linear(in_features=1, out_features=1, bias=True)
  (te_periodic): Linear(in_features=1, out_features=63, bias=True)
  (obs_enc): Linear(in_features=1, out_features=64, bias=True)
  (nodevec): Embedding(41, 64)
  (relu): ReLU()
  (decoder): Sequential(
    (0): Linear(in_features=128, out_features=64, bias=True)
    (1): ReLU(inplace=True)
    (2): Linear(in_features=64, out_features=64, bias=True)
    (3): ReLU(inplace=True)
    (4): Linear(in_features=64, out_features=1, bias=True)
  )
)
parameters: 140097
n_train_batches: 225
Exp has been early stopped!
PID, device: 1020464 cuda:0
Total records: 12000
Dataset n_samples: 12000 7200 2400 2400
Test record ids (first 20): ['135658', '143565', '132686', '153336', '136234', '161259', '144334', '155826', '132965', '145771', '135230', '142282', '132811', '138581', '145324', '156677', '138893', '149970', '138857', '142583']
Test record ids (last 20): ['143105', '137445', '146306', '144014', '138615', '142832', '139966', '153126', '152621', '160873', '146193', '139516', '146984', '143920', '145567', '137594', '162180', '144612', '136132', '143447']
data_max: tensor([… device='cuda:0')
data_min: tensor([ … device='cuda:0')
time_max: tensor(48., device='cuda:0')
model Hi_Patch(
  (gcs): ModuleList(
    (0): Intra_Inter_Patch_Graph_Layer
  )
  (te_scale): Linear(in_features=1, out_features=1, bias=True)
  (te_periodic): Linear(in_features=1, out_features=63, bias=True)
  (obs_enc): Linear(in_features=1, out_features=64, bias=True)
  (nodevec): Embedding(41, 64)
  (relu): ReLU()
  (decoder): Sequential(
    (0): Linear(in_features=128, out_features=64, bias=True)
    (1): ReLU(inplace=True)
    (2): Linear(in_features=64, out_features=64, bias=True)
    (3): ReLU(inplace=True)
    (4): Linear(in_features=64, out_features=1, bias=True)
  )
)
parameters: 140097
n_train_batches: 225
Exp has been early stopped!
PID, device: 1020878 cuda:0
Total records: 12000
Dataset n_samples: 12000 7200 2400 2400
Test record ids (first 20): ['135658', '143565', '132686', '153336', '136234', '161259', '144334', '155826', '132965', '145771', '135230', '142282', '132811', '138581', '145324', '156677', '138893', '149970', '138857', '142583']
Test record ids (last 20): ['143105', '137445', '146306', '144014', '138615', '142832', '139966', '153126', '152621', '160873', '146193', '139516', '146984', '143920', '145567', '137594', '162180', '144612', '136132', '143447']
data_max: tensor([… device='cuda:0')
data_min: tensor([ … device='cuda:0')
time_max: tensor(48., device='cuda:0')
model Hi_Patch(
  (gcs): ModuleList(
    (0): Intra_Inter_Patch_Graph_Layer
  )
  (te_scale): Linear(in_features=1, out_features=1, bias=True)
  (te_periodic): Linear(in_features=1, out_features=63, bias=True)
  (obs_enc): Linear(in_features=1, out_features=64, bias=True)
  (nodevec): Embedding(41, 64)
  (relu): ReLU()
  (decoder): Sequential(
    (0): Linear(in_features=128, out_features=64, bias=True)
    (1): ReLU(inplace=True)
    (2): Linear(in_features=64, out_features=64, bias=True)
    (3): ReLU(inplace=True)
    (4): Linear(in_features=64, out_features=1, bias=True)
  )
)
parameters: 140097
n_train_batches: 225
Exp has been early stopped!
